obesity_model.pth (torch, 43652 bytes, 6 tensors)

layer_stack.0.weight f4 [128, 12]
000000 78 9c 8c be 7b a5 80 be 01 3e 93 be b3 1a 81 3d
       -0.27463126 -0.25126252 -0.28758243 0.063039206
000010 19 f9 56 3f e8 f8 17 bd d7 49 42 be 9a 0b f6 bc
       0.8397384 -0.03710261 -0.1897348 -0.030034829
000020 5a fe e9 bc 14 af 92 3e 3c 36 00 3e bf 43 ac 3e
       -0.028563667 0.286492 0.12520689 0.33645436
000030 50 b6 a5 bf 8a 1b e6 3d 5e 6c e5 3e a0 d2 4d 3d
       -1.2946262 0.112357214 0.4480924 0.050249696
000040 b5 69 1f be 2a 3a 81 3e 6f 64 04 be e7 3e 02 3e
       -0.15567668 0.25239688 -0.12928937 0.12719308
000050 3f 6d c6 be d3 c7 3e 3e 59 df a1 3e 83 d9 51 3e
       -0.38755223 0.18630914 0.31615713 0.2049313
000060 3d b8 e7 bf 40 7f 4e be 25 08 e2 3e e4 cd 80 bd
       -1.81031 -0.2016573 0.4414684 -0.062892705
000070 6d f2 f3 3e e5 55 20 3d 3c 95 39 bd c2 33 b4 3e
       0.47645894 0.039144415 -0.045308337 0.35195738
000080 85 04 18 bd 6a 69 cf bc a5 0c 40 3e 82 5e c5 bc
       -0.037113685 -0.02531882 0.18754824 -0.024092916
000090 9d 53 f6 be b6 37 f4 3e de 58 4f be 7c cd fc 3d
       -0.48110667 0.47698754 -0.20248744 0.123438805
0000a0 1a 3d fa 3e ac 38 ee 3d 15 20 05 3c 26 01 94 3c
       0.48874742 0.11631903 0.008125325 0.018066954
0000b0 21 da 94 be 55 b6 4e be 98 5b 5e be a8 99 96 be
       -0.2907267 -0.20186742 -0.21714628 -0.29414105
0000c0 0e f8 5b bf 03 b6 fc bd 30 d2 0b 3d 7b c4 20 3d
       -0.85925376 -0.123394035 0.034135997 0.03924988
0000d0 25 b7 fb 3c 99 df 20 bd 2f d4 b2 3e 30 34 b7 3e
       0.030726979 -0.03927574 0.34927508 0.35782003
0000e0 b4 1f a7 be d0 af 24 3f 7d b3 87 3e 3d 2d f2 3d
       -0.32641375 0.6433077 0.26504126 0.11825035
0000f0 b5 f5 e8 bf bc 58 9c bb fb 51 82 3d 5d b7 e8 bd
       -1.8199984 -0.00477132 0.06363293 -0.11363099
000100 ba 7f 5c 3d bd c4 d0 3d 55 fa b3 bd 52 e3 b1 3e
       0.053832747 0.10193775 -0.087879814 0.34743744
000110 00 f8 41 3e 27 1b 26 be 46 04 a4 3e 67 93 6a 3d
       0.1894226 -0.16221295 0.3203451 0.05726948
000120 7e e6 b5 3e c9 42 ea be 33 6e c1 3d c8 cd 7f be
       0.35527414 -0.45754078 0.09444847 -0.24980843
000130 f5 ea 4f bf 98 47 da 3e d6 c6 34 be bf 6c 43 3e
       -0.8121789 0.42632747 -0.17653975 0.19084452
000140 c5 0b 28 be 59 5b 9f be 87 33 6b be 36 69 1e bc
       -0.1641074 -0.3112438 -0.22968875 -0.009668639
000150 89 b6 8c bf 33 51 5c bf eb 43 1c be 61 98 64 be
       -1.0993205 -0.860614 -0.15260284 -0.22323753
000160 34 c6 38 3f 1e c4 44 bb 86 9f 43 3d c5 ad 81 3e
       0.72177434 -0.0030024122 0.047759555 0.25327888
000170 80 13 e9 be 48 e7 2f 3c 28 d3 41 3d 3c 61 29 bf
       -0.4552269 0.010736294 0.047320515 -0.6616399
000180 75 31 0c 3d 1e d0 2b bd ac 2b cb be b1 7a 32 3e
       0.034226853 -0.041946523 -0.39681756 0.17429616
000190 15 50 a8 3d c7 fe 5f 3f 7d b6 59 be de e7 58 bf
       0.082183994 0.87498134 -0.2126102 -0.847288
0001a0 01 c9 8f 3e 47 1b f0 b9 5d f3 93 3e f6 ac 4f 3c
       0.2808304 -0.0004579669 0.2889661 0.012675514
0001b0 8a 60 18 bf 6c 22 bb be e1 3d 68 3f 68 4e 74 3e
       -0.59522307 -0.365497 0.9071942 0.23858035
0001c0 75 05 44 3e b5 b8 d9 3e 12 72 58 be 6e 25 a8 be
       0.19142707 0.42523733 -0.21137264 -0.32841057
0001d0 54 c3 60 3e c2 8b 17 3e be 52 5f 3e 61 66 cf bd
       0.21949512 0.14799407 0.21808907 -0.10126949
0001e0 b4 7f 65 3f 6a 71 41 3e 6d 5a 81 3e d9 de a1 3e
       0.89647985 0.1889092 0.25264302 0.31615332
0001f0 b3 03 48 bd 8a 20 42 bf 7c 4e b6 be ad c1 8a be
       -0.048831653 -0.758309 -0.35606754 -0.27100888
000200 ca c9 8b bc 70 1f 1b 3e 58 bb 82 3f 18 95 fa bd
       -0.017063994 0.15148711 1.0213423 -0.122354686
000210 94 ed 25 3e 71 f2 b6 be 67 d9 6e bf 75 e9 7d be
       0.1620391 -0.35731843 -0.9330048 -0.24796088
000220 83 58 1f 3f ca 56 50 3f 91 c8 b4 3d bc f3 5c be
       0.62244433 0.8138243 0.088273175 -0.21577352
000230 0e 64 2c 3b f1 1e 54 be d5 0b 70 bc f5 a5 37 bc
       0.0026304754 -0.20714928 -0.0146512585 -0.011209001
000240 19 ad c2 bc 7c e3 d7 bc 74 1b 10 be b6 04 b1 3e
       -0.02376418 -0.02635359 -0.14072973 0.34573907
000250 16 a6 0d bf 3f 45 dc be 23 b8 93 3f 56 ce 58 bf
       -0.5533155 -0.4302158 1.1540569 -0.84689844
000260 26 f6 89 3e 3e ab 56 3e df 15 e5 bd ed 63 a5 3e
       0.2694561 0.20963761 -0.11185812 0.323028
000270 a0 5a 3a 3f af 63 45 3e 06 1b 41 bf 3c 70 12 bf
       0.7279453 0.19276308 -0.7543186 -0.57202506
000280 6b 5c ed 3d 84 80 52 be 01 cd ad 3e af f9 02 bf
       0.11589893 -0.20556837 0.33945468 -0.51162237
000290 f0 f3 0c be 6f 04 2b be 14 a8 81 3e 1c 33 a2 bd
       -0.1376493 -0.1670091 0.25323546 -0.079199046
0002a0 b8 0d 24 3f 99 dc 9c 3e bc 34 32 3e 20 05 6b 3e
       0.64083433 0.30637053 0.17402929 0.22951174
0002b0 34 a2 23 bf cc ca c5 3d 87 d4 a7 3a 61 18 85 be
       -0.6391938 0.09657821 0.0012804427 -0.25995162
0002c0 44 41 e8 be b3 de 13 3e 19 2a aa 3e 5a ec 90 be
       -0.45362294 0.14440422 0.33235243 -0.28305322
0002d0 81 c3 de bc 5b 3d 69 be e7 b8 ed 3e 7b 9a a1 3d
       -0.027192833 -0.22777312 0.46430132 0.07890793
0002e0 34 79 91 bf 68 1e a9 3e e7 98 a5 3e ad a9 25 3e
       -1.1365113 0.3303101 0.32343218 0.16178007
0002f0 af 88 dd 3d 7f bc 09 3f 53 cc a1 3b 40 00 0c be
       0.10817086 0.5380325 0.0049376874 -0.1367197
000300 a0 bd 3e bf 89 a1 07 be 93 0d a8 3e 23 cf 04 3f
       -0.74508095 -0.13245215 0.32822856 0.51878566
000310 bd ca 94 3e 85 b5 f0 be db 07 9e 3e 7e e8 8b be
       0.29060927 -0.47013488 0.30865368 -0.27325815
000320 e2 3a c2 be 95 87 21 3f 9a 30 f1 3b 34 42 20 3e
       -0.3793555 0.63097507 0.00736053 0.15650254
000330 18 2b 66 3f 75 5d fd bd 0e 9b 68 bf ce 5b 62 3e
       0.89909506 -0.12371341 -0.90861595 0.22105333
000340 14 32 a1 be 88 4c 4c bf 4d b9 81 3e ce a5 a5 3e
       -0.3148352 -0.7980428 0.25336686 0.3235306
000350 49 72 17 be b4 07 c3 bc e5 3d 35 be 75 74 8d 3e
       -0.1478969 -0.023807384 -0.17699392 0.27627912
000360 94 53 d5 3e 57 18 14 be a9 43 90 be 4a 19 3e 3e
       0.41665328 -0.1446241 -0.2817662 0.18564335
000370 f7 1f ae be 3b 5c 8b 3e b2 be 4d 3e ed 78 cc be
       -0.34008762 0.27218804 0.20092276 -0.3993601
000380 14 81 82 be a1 a5 ed 3e 68 5b 6e be c6 7c b9 3e
       -0.25489104 0.46415427 -0.23277056 0.36228007
000390 ac f1 9a 3d 69 72 4f 3e 28 ab 98 bf 38 2b 2f 3e
       0.075656265 0.20258488 -1.1927233 0.1710633
0003a0 a5 cc 6a 3f 00 9e 21 3f d3 62 d1 be f7 36 44 bd
       0.9171851 0.63131714 -0.4089571 -0.04790398
0003b0 b2 9a 0b 3e b8 24 b4 3e cd 21 a0 bd 23 b8 86 3d
       0.1363323 0.35184264 -0.07818947 0.0657809
0003c0 11 5e 52 3f d9 d5 28 3e 15 9a 11 3f 7f e4 b7 3e
       0.82174784 0.16487826 0.56875736 0.35916516
0003d0 d4 a8 f5 be a8 2b ab be f3 5c 3e bf 4e 72 ab be
       -0.47980368 -0.33431745 -0.7436058 -0.33485645
0003e0 87 cf ec bd 7f 81 aa 3e df 2e a4 3d 18 92 8e be
       -0.1156302 0.33301923 0.080167525 -0.27845836
0003f0 8a ad dd be 39 c0 8f be 5f 46 39 3f b6 8d bc be
       -0.43296462 -0.28076342 0.72373 -0.36826867

layer_stack.0.bias f4 [128]
000000 ff 97 7c be 43 6d bb be 27 87 73 be 31 51 1d bf
       -0.24667357 -0.36606798 -0.23782025 -0.61452013
000010 a6 b2 cd be a8 06 1d bf 49 32 f7 be e1 ce 70 bf
       -0.4017536 -0.6133828 -0.48280552 -0.9406567
000020 45 63 10 bf 76 79 ea be d3 dd 4b bf 09 53 f3 be
       -0.56401473 -0.45795792 -0.7963535 -0.47524288
000030 09 54 2e bf 42 82 81 bf f6 ee f8 be 8e 20 f9 be
       -0.6809698 -1.0117877 -0.48619813 -0.4865765
000040 71 1b 0e bf d8 f6 4a bf cd c4 3e be 29 04 23 bf
       -0.5551062 -0.79282904 -0.18629761 -0.6367822
000050 0d e5 c6 be 9d 21 fb be 92 54 1c bf ee a4 6b bf
       -0.38846627 -0.49049082 -0.61066544 -0.9204854
000060 e8 e0 ee be 6d ca 01 bf 22 dd 38 bf 8e 0b cb be
       -0.46655965 -0.506995 -0.7221242 -0.39657253
000070 e0 94 03 bf 1e 29 18 be e1 a9 22 bf 25 46 08 bf
       -0.5139904 -0.14859435 -0.63540465 -0.5323203
000080 e9 c5 c3 be f2 84 75 bf 1f 23 ac be c1 fc fe be
       -0.3823693 -0.95905983 -0.33620545 -0.4980221
000090 b3 6a e6 be 7a ad 39 bf 98 57 b1 be b2 3e 6d bf
       -0.4500328 -0.7253033 -0.3463714 -0.9267379
0000a0 b6 ae 2b bf 74 9b d9 be 0c fc af be 90 cb 3e bf
       -0.6706346 -0.42501414 -0.34371984 -0.7452936
0000b0 7e 66 ec be 1a 99 2f bf 1e c3 3f be ad 33 0a bf
       -0.46171945 -0.6859299 -0.18726775 -0.539851
0000c0 ac fa 25 bf bc 70 94 be da 5e 7a bf 45 67 43 be
       -0.6483562 -0.2899226 -0.9780098 -0.19082363
0000d0 f3 e1 80 bf 46 4f 1a bf 23 dd 23 bf fd 3a 4f be
       -1.0068954 -0.6027721 -0.640093 -0.20237346
0000e0 9f 05 4b bf 2d 9e de be b3 39 40 bf 8f 67 34 bf
       -0.7930545 -0.43480054 -0.7508804 -0.7047052
0000f0 69 80 7e bf ed a3 ea be 3d 00 19 bf f3 82 f7 be
       -0.9941469 -0.4582819 -0.5976599 -0.48342094
000100 87 de 53 bf 21 be 2b bf a1 b9 d0 be 0a 8c ac be
       -0.82761425 -0.6708699 -0.40766624 -0.3370059
000110 fe f5 31 bf 6c 5c 5c bf 79 bc 5d bf 67 d4 0b bf
       -0.6951598 -0.86078525 -0.8661571 -0.54620975
000120 d8 1a 46 bf b7 1e 72 be 3a 0d 71 bf 14 80 97 be
       -0.7738471 -0.2364453 -0.9416081 -0.29589903
000130 9c d7 39 bf 78 d4 c2 be 32 16 93 be a8 21 04 bf
       -0.7259462 -0.38052726 -0.2872787 -0.51613855
000140 3c f3 8e bf 09 95 17 bf 0c 4c de bd 8a 98 89 bf
       -1.1167979 -0.59211785 -0.108543485 -1.0749676
000150 95 51 5e bf 13 32 3b bf cb 14 3f bf e4 1b 05 bf
       -0.86843234 -0.7312328 -0.746411 -0.5199568
000160 f5 c7 a3 be 05 45 73 bf 61 0e 25 bf be 51 d0 be
       -0.31988493 -0.9502719 -0.64475065 -0.40687364
000170 99 f2 fe be 41 32 43 bf 48 f5 16 bf c0 07 45 be
       -0.49794462 -0.76248556 -0.5896802 -0.19241238
000180 3b c4 e8 be 2f 6c cd be dc 1e 0f bf ae 51 8f be
       -0.45462212 -0.401216 -0.5590646 -0.27992004
000190 90 cf 1d bf 58 22 17 be 2e 40 28 bf c2 49 94 be
       -0.6164484 -0.14759195 -0.6572293 -0.28962523
0001a0 24 cc f8 be e0 d6 7f bf a0 75 59 bf 05 3e 84 bf
       -0.48593247 -0.9993725 -0.84945107 -1.0331427
0001b0 99 08 13 bf 71 e3 18 bf 21 35 f3 be ec ed 45 bf
       -0.57434994 -0.5972205 -0.47501472 -0.77316165
0001c0 49 f6 67 bf f1 b8 25 bf 61 12 26 bf 3b af 70 bf
       -0.90610176 -0.64735323 -0.64871794 -0.9401738
0001d0 13 e9 10 bf 5a 4c 9c be 7c 06 cc be 64 9e 1d bf
       -0.56605643 -0.30527002 -0.39848697 -0.6156981
0001e0 ec 75 43 bf 24 91 d8 be cc e6 5c bf 8a f3 c6 be
       -0.7635181 -0.42298234 -0.8628967 -0.3885768
0001f0 14 be a8 be 24 a9 7b be 3b 1d c3 be d0 9f 29 bf
       -0.32957518 -0.24576241 -0.3810824 -0.6625948

layer_stack.3.weight f4 [64, 128]
000000 af 86 2a 3e 3c 8d 30 be 80 96 19 3f ea 5e 5c 3f
       0.1665294 -0.17241377 0.5999527 0.8608233
000010 a4 fb 2d 3f 2c 8c 29 3f 80 c3 08 3d bb 81 6e 3e
       0.679621 0.6622951 0.03338957 0.23291676
000020 8f 6c 9b bf 71 52 57 be 3c 95 be bd 27 56 b6 be
       -1.2142504 -0.21027543 -0.09305808 -0.35612604
000030 96 e4 4d be 6f 0a 04 bf 78 bf 01 bd 27 d1 ae be
       -0.2010673 -0.5157842 -0.03167674 -0.34143946
000040 53 67 2d 3f 13 3e 13 bf bb f3 ce 3e f1 41 04 3f
       0.67735785 -0.5751659 0.40420327 0.5166312
000050 cb ec 22 3d ef 46 6b be f0 66 f7 be a4 91 fa bd
       0.039776605 -0.22976278 -0.48320723 -0.1223481
000060 e0 eb eb bd 32 d7 8a be 67 17 97 3c ac 99 93 3e
       -0.11519599 -0.27117306 0.018443776 0.2882818
000070 f1 32 fb 3e 6e 58 7a be 2e 08 96 be 45 a1 fb 3d
       0.49062303 -0.24447796 -0.29303116 0.12286619
000080 39 10 c8 3e 35 0a 50 3e b9 04 d7 3e 9f 55 a0 be
       0.39074877 0.20316394 0.4199579 -0.31315324
000090 1d 59 21 bf 70 51 27 3e 5a c4 00 3e 80 cb ce bc
       -0.630266 0.1633966 0.12574902 -0.02524352
0000a0 7a d2 84 3e 45 06 a9 be ba e3 8a be 1a 31 8e 3e
       0.2594183 -0.33012596 -0.27126867 0.27771837
0000b0 81 bc 49 3e 1b 39 8b bf 31 3f 0c bf 79 22 ae bd
       0.19700815 -1.0876802 -0.5478392 -0.08502669
0000c0 ee bc 17 be ce a3 f7 3e c7 f8 fa 3e 12 a6 41 3e
       -0.14818165 0.4836716 0.49017927 0.18911007
0000d0 a4 3e 8f 3e ee 85 a4 be 0a 89 05 be 8d 31 85 3e
       0.27977479 -0.3213343 -0.13040558 0.26014367
0000e0 72 c9 e6 bc e0 fc 9e 3e 21 aa 0a 3e 13 f9 c7 3e
       -0.028172228 0.31052303 0.13541462 0.39057216
0000f0 30 72 ca bd 25 bc a1 bc e1 e8 40 be cc bd 47 be
       -0.09885061 -0.019743035 -0.18838836 -0.19505996
000100 a6 77 bd bf a2 c5 5b 3e fe 8f ff be b1 8d 77 3e
       -1.4802139 0.2146211 -0.49914545 0.24175145
000110 8b e0 fc 3d 5f a9 4d 3e 8f 86 8e 3d e5 ab 90 3e
       0.12347516 0.20084141 0.06959259 0.28256145
000120 4d 24 89 3e 19 7d 5e bd 1d d8 c1 3e 62 67 61 3e
       0.26785508 -0.05431852 0.37860194 0.22012094
000130 f9 a9 9c 3e 62 a6 89 bd da 0f f4 be e0 3b 38 bd
       0.3059843 -0.06721188 -0.47668344 -0.044978976
000140 1c c4 10 be 3b ae eb 3e 3c e0 6a 3e 8a 52 00 bf
       -0.1413731 0.46031365 0.22937101 -0.50125945
000150 db 21 11 be d4 fc 66 bf 48 a6 0f 3f 7f 8b e0 bc
       -0.14173071 -0.90229535 0.561131 -0.027410267
000160 21 88 e4 3e dd 5c 81 bd 24 38 c3 bd 8e 71 c9 3e
       0.44635108 -0.063165404 -0.09532192 0.39344448
000170 3e eb 9a 3d 08 e8 bd 3c 28 9b 45 be c4 1e 6a 3e
       0.075644 0.02318193 -0.19297469 0.22863299
000180 66 d9 4d 3e 3e 3b d7 3e 68 62 bb 3d 5b b8 5a be
       0.20102462 0.42037386 0.09149629 -0.21359389
000190 7a fd 67 be f4 1f ea 3e 59 a6 25 3e cf fc 02 3d
       -0.22655287 0.45727503 0.16176738 0.03197938
0001a0 8b 73 59 3d 3b 79 e8 bd b0 55 77 be f0 5f f0 3e
       0.053088706 -0.11351248 -0.24153781 0.46948195
0001b0 03 bb 49 3c 3c ec 03 bd cf 68 3b be 91 78 53 be
       0.0123126535 -0.032207713 -0.183017 -0.20651461
0001c0 f1 b7 19 3d 4b 8c 53 3d 06 30 92 3d 3d 2f 0c 3e
       0.037528936 0.051647466 0.07138066 0.13689895
0001d0 0b bd fb 3e 35 dc c8 bd 2b cb ef 3e c4 38 67 3e
       0.49167666 -0.09807626 0.46834692 0.22580248
0001e0 00 44 93 be 83 de 8b be 3c 19 f8 3d 83 8c c0 3d
       -0.28762817 -0.273182 0.12114188 0.094018005
0001f0 35 1a c5 3e 97 6d ef bb 35 a7 c6 3d de 41 3f bd
       0.38496557 -0.0073067653 0.09699861 -0.046693675
000200 d6 27 61 3e 5d 5c 3b 3e 57 54 7b 3e 6c b1 49 bd
       0.21987852 0.18296953 0.24543892 -0.04924147
000210 86 5c 0c be 9e 02 79 3e ce e2 cf 3d 97 77 10 3e
       -0.1370717 0.24317405 0.101506814 0.1410812
000220 30 e2 38 3e 59 cb e5 3c a6 db 87 bf 52 14 22 bc
       0.18055034 0.028051065 -1.0613906 -0.00989254
000230 ff c5 38 be 5a fc b0 be cc b6 50 3e c7 c7 45 be
       -0.1804428 -0.3456753 0.20382231 -0.1931449
000240 7f 24 98 bd 4e 04 22 bf c6 2d 0a be 31 cf 23 3c
       -0.07428836 -0.6328782 -0.13494024 0.009998129
000250 fa 2b eb bf 19 c9 bd 3e ba a6 ea 3d b6 d0 ae bd
       -1.8372796 0.37067488 0.11457582 -0.08535902
000260 17 38 f7 3d 80 67 0e be 25 f8 c1 bd 61 6e 5a bd
       0.12071245 -0.1390667 -0.09471158 -0.05332792
000270 fd 4a ac 3f 4e 9d 80 3d 07 aa 6d 3e 43 73 59 3d
       1.3460385 0.062800035 0.23209392 0.053088438
000280 81 27 56 bc a2 cf 5a bf 2f de ff bc a1 b6 1f be
       -0.013070942 -0.8547307 -0.031233875 -0.15597011
000290 01 83 2c 3e 2a e4 9d be 6c 0a 26 be 4f 6a fd bf
       0.16846849 -0.30838138 -0.16214913 -1.9798068
0002a0 d6 58 a6 3d ca 2d 05 bc 1f 17 01 be 32 d9 03 bc
       0.08122413 -0.008128593 -0.12606476 -0.008047389
0002b0 bc ce 75 bf a1 e6 b7 bd 90 2e af bd 76 3c 12 3e
       -0.96018577 -0.08979536 -0.08553803 0.14280877
0002c0 45 4a a7 3c 31 09 e6 3d 05 aa 54 bc b6 de c2 3e
       0.020421157 0.11232222 -0.012979989 0.3806054
0002d0 bf 67 0a bf 07 77 ee bd 1e ff 6e 3e a0 5b 54 3e
       -0.54064554 -0.116437964 0.23339507 0.20738077
0002e0 cb 44 15 3e 77 4e 6a bf 08 1a 0b bd f0 23 ca 3e
       0.14577024 -0.9152598 -0.033960372 0.39480543
0002f0 a2 5e 18 bf bd 45 4c bd 3a 93 02 3d fe 1a 2f be
       -0.595194 -0.049871195 0.031878687 -0.1710014
000300 c9 46 5b be 97 eb 6d bf ef c4 48 3e 8c c9 66 be
       -0.21413721 -0.92937607 0.19606374 -0.22537822
000310 1a 5c 43 3e b9 9a 5b bd 28 7a 83 bf 82 81 10 3f
       0.19078103 -0.053614352 -1.0271654 0.56447613
000320 c5 57 d9 be 24 50 cd bc 30 ed 58 3f a0 c4 46 3c
       -0.42449775 -0.025062628 0.8473692 0.01213184
000330 f8 28 46 be d0 77 06 3c 31 94 8b be 34 31 be bc
       -0.19351566 0.008207276 -0.272615 -0.023216821
000340 57 e3 8e bf d1 5a 73 3e 92 0f 1a 3f 0b bf cd bf
       -1.1163129 0.23765112 0.6018001 -1.6073927
000350 27 6b 94 be 70 7d 4d 3e 19 f1 5f bd ba 4e 3f 3e
       -0.28988 0.20067382 -0.054673288 0.18682376
000360 66 8b be bc 9c 03 7f bf f4 eb 72 be 2f de 2c bd
       -0.02325983 -0.9961488 -0.23722821 -0.04220408
000370 28 2d 24 3d 55 3f 2a 3d f0 49 15 bd 7e f4 06 3c
       0.040082127 0.041564304 -0.036447465 0.008237002
000380 21 49 ab 3e 07 d1 29 3e c3 f9 89 bd 27 c4 14 3d
       0.3345423 0.16583644 -0.067370914 0.036319878
000390 b3 90 8c be ae e3 57 bd 3e be fe bd de e4 d3 3b
       -0.27454147 -0.052707367 -0.124386296 0.006466492
0003a0 e0 0c 53 bd ba fa e1 3d 9d 34 94 be 61 5b 83 3d
       -0.05152595 0.110341504 -0.2894639 0.064139135
0003b0 f1 c5 be 3e 78 8f 59 3f 20 a6 6f 3d fc ec 69 3d
       0.37260392 0.8498454 0.05850804 0.05711077
0003c0 0a bb 03 3e 3d ea c5 be 19 ae 29 3f 8c 2c 79 bf
       0.12864318 -0.38655272 0.66281277 -0.973336
0003d0 ac 2f 69 3e 40 0d df bd 71 1b 68 be 65 1c 4d bd
       0.22772092 -0.10891199 -0.22666718 -0.050075907
0003e0 7b b3 af 3e 26 dc 9a 3d d0 16 5b 3e 6f 0f b0 3e
       0.3431662 0.07561521 0.21395421 0.34386775
0003f0 da bc 77 be 24 a6 a2 be 37 fb d4 bc 11 c1 11 be
       -0.24193135 -0.3176738 -0.025998695 -0.14233805

layer_stack.3.bias f4 [64]
000000 63 16 6e bc bc 2c 76 3e fa ec 87 3e 6c 8a 14 be
       -0.014531705 0.24040502 0.26547986 -0.14505929
000010 75 31 32 3e 7b c1 8b 3e bb 7f ce 3c 61 43 93 be
       0.17401679 0.2729605 0.025207391 -0.28762344
000020 2c f4 f7 3c f6 34 83 3d fb 55 7f be 24 f8 b4 3d
       0.030267797 0.06406586 -0.24935143 0.088363916
000030 94 9f 49 bf ff 70 67 3e 1c 2b c4 be 8a 1c bf 3e
       -0.7875912 0.22601698 -0.3831414 0.3732646
000040 5a e3 83 3e ff 40 87 3e 3b 6a 6a be 2b 7d 04 3f
       0.25759393 0.26416776 -0.22892086 0.5175349
000050 f6 d3 96 3e b9 c2 95 be 54 ad ce 3c 13 6b 02 be
       0.29458588 -0.29250124 0.025229134 -0.12736158
000060 64 b6 1d 3d 97 1b 73 3d 55 c3 bf 3d 80 c1 cb bd
       0.03850402 0.059352484 0.093634285 -0.099490166
000070 a7 cb a6 3e b2 00 90 3d d3 3b 0d bd b6 f2 46 3e
       0.3257725 0.070313826 -0.03448088 0.19428524
000080 8d 43 43 3e e7 30 5e 3e 83 41 84 3e c1 6c 55 3e
       0.19068737 0.21698342 0.2583123 0.20842268
000090 d2 3c 7e be 88 0d 9c 3e da 79 d6 3e 87 ea 19 3f
       -0.24827889 0.30479074 0.4188984 0.60123485
0000a0 cf a1 ad 3e 89 f5 a6 be d1 2a 9d be a3 8a f2 3e
       0.33912513 -0.32609203 -0.3069673 0.47371396
0000b0 9a 8f f1 be 25 14 4c be d2 7a ef be 7f 4f 8c 3d
       -0.47179872 -0.1992956 -0.46773392 0.068511
0000c0 a5 20 13 be f4 a1 60 3e 93 32 dc be be f2 ba 3e
       -0.14367922 0.2193678 -0.43007335 0.36513323
0000d0 18 13 19 be a4 69 f8 3c 91 64 96 bd ff 04 cb 3e
       -0.1494869 0.03032381 -0.073434 0.3965225
0000e0 be 0b 87 3e 51 74 1b 3e fd 1b 05 be 23 4f 1e bf
       0.26376146 0.1518109 -0.12998958 -0.61839503
0000f0 66 fe 2a bd 34 66 03 3e ab 47 5a bc 3d ee 2c be
       -0.04174652 0.12831956 -0.013322751 -0.16887756

layer_stack.6.weight f4 [4, 64]
000000 37 d2 b2 3d 9e ac f2 3d d6 43 f4 bd d8 9d 13 3f
       0.087315015 0.1184933 -0.11927001 0.57662725
000010 32 7e bb be 51 57 c9 3a 73 10 ab bf 35 9a 03 be
       -0.36619717 0.0015361105 -1.3364395 -0.12851794
000020 8b b8 4e 3d da 84 24 3d 6a 1e e0 bf da 9e f7 bf
       0.050468963 0.04016576 -1.7509282 -1.9345353
000030 f6 3a 79 3e 34 55 57 3d c0 bd bd bf 9f ed 32 3f
       0.24338898 0.05257149 -1.4823532 0.6989383
000040 70 73 61 3f 90 cd fb 3d 95 70 6e 3f ea 69 3c 3e
       0.8806677 0.12295067 0.93140537 0.18399778
000050 10 0a 5a 3e 1a c9 c4 3e 8b 38 60 bf 74 b8 9c 3e
       0.21292901 0.38434678 -0.8758628 0.30609477
000060 a5 68 14 bd 0e 4f 18 3e 58 20 db 3d b0 c8 f1 bf
       -0.03623261 0.14873907 0.106995285 -1.888937
000070 9e eb 6e bf ec d4 ca bf 8d fe 41 3e 2d e0 00 c0
       -0.93328273 -1.5846229 0.1894476 -2.0136826
000080 1e aa e6 3d 78 c5 94 3c ee f7 95 3f 30 a1 f3 bf
       0.11262916 0.018160567 1.1716287 -1.9033566
000090 0e 36 ac bf e3 0d 4b 3f cc 70 c2 3d ce 83 0b 3f
       -1.3453996 0.79318064 0.094941705 0.54497993
0000a0 9c 70 08 3f f4 6b 4b 3e 11 6d 99 3e ec 44 99 bf
       0.5329683 0.198654 0.29966024 -1.1974158
0000b0 17 85 4d bf b5 3e f5 3d 5c 35 9a 3e 82 b8 a6 bf
       -0.80281204 0.11974851 0.30118835 -1.3025057
0000c0 75 32 6c 3e 4f b1 7c 3f 7b d8 55 3e 28 2f 54 3e
       0.23066123 0.9870805 0.20883362 0.20721114
0000d0 86 ac ba 3f c6 63 b4 3e 7d 9a a5 3e 6e cd 01 3e
       1.45839 0.3523237 0.32344428 0.12676021
0000e0 ec f7 9b bf fb 3c b1 3e bb ed 71 3e b7 24 74 3e
       -1.2185035 0.34616837 0.23625843 0.2384213
0000f0 b3 91 97 3e b7 79 92 3d 7f ec 91 3e ed c9 b6 3e
       0.29603347 0.071521215 0.28500745 0.35700932
000100 78 31 3b c0 d5 a7 dd be f1 5f 0e bd 0c 33 89 3f
       -2.9248943 -0.43292108 -0.034759466 1.0718703
000110 1b c6 cc 3e 2a 1d 4d c0 e7 a4 56 be 9d 96 4a 3f
       0.39994892 -3.204905 -0.20961343 0.7913607
000120 ac 93 1c c0 ae 44 7e c0 7d 3c f8 bd b1 63 a8 3f
       -2.4465132 -3.9729419 -0.12120912 1.3155423
000130 7a 98 60 3e 21 31 6c c0 55 af 8a bf d5 e3 b1 c0
       0.21933165 -3.6904986 -1.0834757 -5.5590615
000140 e1 59 6e 3f ed 68 6c 3e cf 11 52 3f a8 95 97 3e
       0.93105894 0.23086901 0.82058424 0.29606366
000150 95 04 e7 3e 6f 8e 6b 3f be 35 7c 3f cd 44 f8 3d
       0.45120683 0.9201421 0.98519504 0.12122498
000160 5b e0 72 c0 22 e7 0c c0 06 65 d4 3e b9 be e0 3f
       -3.7949436 -2.2016072 0.41483325 1.7558204
000170 90 f8 7e bb d9 85 6a be fa 89 c7 3e 83 5c 99 3f
       -0.003890548 -0.22902621 0.38972455 1.1981357
000180 c6 2d 6b c0 67 b4 18 3e 49 12 0b 3f 45 23 81 c0
       -3.6746688 0.14912568 0.54324776 -4.0355554
000190 30 da db bd 92 1f 00 be ed 12 d8 bf c8 d6 fb be
       -0.10734975 -0.12512043 -1.6880776 -0.49187303
0001a0 7f 82 1e 3e 84 8c f5 bf 5e 73 8e c0 05 81 a6 3f
       0.15479468 -1.9183507 -4.451583 1.3008124
0001b0 e2 47 9b 3e c4 96 30 c0 f5 b8 a5 bf 36 8e 11 40
       0.3032828 -2.759202 -1.294707 2.2743049
0001c0 d6 82 04 c0 c2 b9 1a c0 e7 75 95 bf a2 7a 37 bf
       -2.0704856 -2.4175878 -1.1676606 -0.716715
0001d0 b8 ac 44 bf 37 7d 5e c0 28 34 c7 bf 24 cb 69 3e
       -0.7682605 -3.4763925 -1.5562792 0.22831398
0001e0 c6 a5 f8 3e 2f c6 04 c0 2b 9a 30 c0 37 aa ca bf
       0.48563975 -2.0745962 -2.7594097 -1.5833195
0001f0 e0 93 6a 3f c3 92 bc 3e 80 04 42 c0 a9 52 1d 3f
       0.9163189 0.3683072 -3.0315247 0.61454254
000200 37 82 08 3c 7b c3 0c 3e 5f 5d 12 c0 5f 7e 92 bf
       0.008331827 0.13746445 -2.286949 -1.1444815
000210 cb e7 ff 3e 2d 9c 8c 3d ac a1 e3 3f 73 7a 0a c0
       0.49981532 0.06865726 1.7783713 -2.1637237
000220 6d b5 54 be 4f 7d 73 3d 74 9b 2f 3f ad 36 fe 3e
       -0.20772333 0.059445675 0.6859658 0.4965109
000230 41 31 83 3e f4 97 f2 3c ec 2e 52 3f e9 54 96 bf
       0.25623515 0.029613473 0.8210285 -1.1744663
000240 a7 62 5e bf 20 d3 40 3e 1a 81 be bf 53 0f f2 bf
       -0.8686928 0.18830538 -1.4883149 -1.8910927
000250 12 26 43 3e 14 39 97 bf a6 e6 32 3f f0 75 05 3e
       0.19057491 -1.1814294 0.6988319 0.13033271
000260 d2 ad 83 3d 67 16 c7 be ec 48 49 3e 23 5a 78 3f
       0.06429638 -0.3888428 0.19656724 0.9701254
000270 ed 0d ab 3f e9 95 45 3f cc 98 f3 3d 5a d4 a4 3f
       1.3363625 0.7718187 0.11894378 1.2877305
000280 f5 57 e5 3d 32 97 3e 3d 77 ec 16 bf 31 0c 83 3f
       0.11198417 0.04653091 -0.58954567 1.0238096
000290 af 3d 9a 3f 74 14 9e bf 99 f5 0b 3f 3f 53 d8 bf
       1.2050074 -1.2349992 0.5467163 -1.6900405
0002a0 42 c1 e7 bf fb 47 1e 3c 6a a8 c2 bf bb 76 86 3f
       -1.8105853 0.009660716 -1.5207646 1.0504984
0002b0 1a 92 19 3e 67 71 43 bf fc 69 56 bf 5c b0 a3 3f
       0.1499714 -0.76344913 -0.8375547 1.2788196
0002c0 e8 23 ce be 69 76 15 bf d0 65 78 3e 0d 66 36 3e
       -0.4026177 -0.58383805 0.24257588 0.17812367
0002d0 04 68 cb bf cb ae 86 bf 88 da 79 be d8 b5 16 3e
       -1.5891118 -1.0522093 -0.2439977 0.14717805
0002e0 cc 68 b8 3f ac a7 fd be 6e cf bf be b4 d3 af be
       1.4406981 -0.49541986 -0.37462944 -0.34341204
0002f0 00 de 8f bf 06 0d eb 3d 0a 39 eb be c8 d9 3a bd
       -1.1239624 0.114770934 -0.45941955 -0.04561785
000300 79 9b 94 bc 64 de da bf f3 eb c4 3f b5 2e 36 bf
       -0.018140541 -1.7099118 1.5384506 -0.7116502
000310 21 07 04 c0 95 8d 99 3c 4e 45 34 c0 2f 0b 88 3f
       -2.062935 0.01874427 -2.81673 1.0628413
000320 8e 63 21 3f 3a 3a b9 3c d6 b4 b2 3f 06 db cb 3f
       0.63042533 0.022610772 1.3961437 1.5926216
000330 89 00 01 c0 45 43 99 3d d6 e8 78 3f 7e 63 db 3e
       -2.0156577 0.07483534 0.9723028 0.42849344
000340 af 17 d7 bf b6 d3 f1 bf 08 df 03 be e5 41 d0 3f
       -1.6804103 -1.8892734 -0.12878048 1.627011
000350 97 4c f8 bf 5a 15 77 3e 8e ee 59 bf 2a 24 fb bf
       -1.9398373 0.24129239 -0.8512963 -1.9620411
000360 4b f4 d1 3d 75 3b 28 3e bb 01 ec bf 3f cf e3 3e
       0.10251673 0.16428931 -1.8438028 0.44494054
000370 1b 32 f9 bf 3f c1 c4 3f f0 60 d4 bf d5 84 be 3d
       -1.9468416 1.5371474 -1.6592083 0.093026794
000380 fc c6 f9 3d 77 0e f2 bf ef 13 25 c0 f4 15 aa 3f
       0.121961564 -1.8910664 -2.5793417 1.328795
000390 d0 9d 32 3f 5f 39 39 bd ee 05 11 c0 53 dc 84 3f
       0.6977205 -0.04522073 -2.265987 1.0379738
0003a0 5d 88 b5 3e 79 c7 7c bf 3c 9f c7 3e 2d 81 4a c0
       0.354556 -0.9874187 0.38988674 -3.1641343
0003b0 cb 20 4f 3f 26 a3 b8 3e d5 4a a7 3e 50 cd 5f bf
       0.80909413 0.36061972 0.3267428 -0.87422657
0003c0 d3 a6 9d 3c b7 a4 63 bf d3 dd 9f bf 0d 9e 93 bf
       0.019244587 -0.8892321 -1.248957 -1.1532608
0003d0 b0 8e 0f bf a2 bc b9 3e c6 53 91 3d b1 d0 f7 bf
       -0.560771 0.36276728 0.07096057 -1.9360563
0003e0 0e d7 10 c0 41 2e 38 3e 8c a9 f5 3d 26 5d 0e 3e
       -2.263126 0.17986394 0.11995229 0.13902721
0003f0 74 39 b0 3e 3b ab d4 bf d8 86 a4 3e 3a 29 ca bf
       0.34418833 -1.6614755 0.32134128 -1.5793831

layer_stack.6.bias f4 [4]
000000 37 c1 6a 3e 2a 10 cc 3e 9a b0 dd bc 23 41 7e be
       0.22925268 0.39856082 -0.02706175 -0.24829535
